#loc = loc("/data/wyl003/prompt-ordering-research/torchinductor_wyl003/6i/c6i6ko7hzunbg6k4dj2g7dl6xaqh5cmkewbifikl7g2gsqzbjcke.py":18:0)
#loc1 = loc(unknown)
module {
  tt.func public @triton_(%arg0: !tt.ptr<bf16> {tt.divisibility = 16 : i32} loc("/data/wyl003/prompt-ordering-research/torchinductor_wyl003/6i/c6i6ko7hzunbg6k4dj2g7dl6xaqh5cmkewbifikl7g2gsqzbjcke.py":18:0), %arg1: !tt.ptr<bf16> {tt.divisibility = 16 : i32} loc("/data/wyl003/prompt-ordering-research/torchinductor_wyl003/6i/c6i6ko7hzunbg6k4dj2g7dl6xaqh5cmkewbifikl7g2gsqzbjcke.py":18:0), %arg2: !tt.ptr<bf16> {tt.divisibility = 16 : i32} loc("/data/wyl003/prompt-ordering-research/torchinductor_wyl003/6i/c6i6ko7hzunbg6k4dj2g7dl6xaqh5cmkewbifikl7g2gsqzbjcke.py":18:0), %arg3: i32 {tt.divisibility = 16 : i32} loc("/data/wyl003/prompt-ordering-research/torchinductor_wyl003/6i/c6i6ko7hzunbg6k4dj2g7dl6xaqh5cmkewbifikl7g2gsqzbjcke.py":18:0), %arg4: i32 {tt.divisibility = 16 : i32} loc("/data/wyl003/prompt-ordering-research/torchinductor_wyl003/6i/c6i6ko7hzunbg6k4dj2g7dl6xaqh5cmkewbifikl7g2gsqzbjcke.py":18:0)) attributes {noinline = false} {
    %c2048_i32 = arith.constant 2048 : i32 loc(#loc1)
    %cst = arith.constant dense<0.000000e+00> : tensor<1x2048xbf16> loc(#loc1)
    %cst_0 = arith.constant dense<1.000000e+00> : tensor<1x2048xf32> loc(#loc1)
    %cst_1 = arith.constant dense<9.99999997E-7> : tensor<1x1xf32> loc(#loc1)
    %cst_2 = arith.constant dense<2.048000e+03> : tensor<1x1xf32> loc(#loc1)
    %cst_3 = arith.constant dense<2048> : tensor<1x2048xi32> loc(#loc1)
    %cst_4 = arith.constant dense<0.000000e+00> : tensor<1x2048xf32> loc(#loc1)
    %0 = tt.get_program_id x : i32 loc(#loc2)
    %1 = tt.make_range {end = 2048 : i32, start = 0 : i32} : tensor<2048xi32> loc(#loc3)
    %2 = tt.expand_dims %1 {axis = 0 : i32} : tensor<2048xi32> -> tensor<1x2048xi32> loc(#loc4)
    %3 = arith.cmpi slt, %2, %cst_3 : tensor<1x2048xi32> loc(#loc5)
    %4 = arith.muli %0, %c2048_i32 : i32 loc(#loc6)
    %5 = tt.splat %4 : i32 -> tensor<1x2048xi32> loc(#loc7)
    %6 = arith.addi %2, %5 : tensor<1x2048xi32> loc(#loc7)
    %7 = tt.splat %arg0 : !tt.ptr<bf16> -> tensor<1x2048x!tt.ptr<bf16>> loc(#loc8)
    %8 = tt.addptr %7, %6 : tensor<1x2048x!tt.ptr<bf16>>, tensor<1x2048xi32> loc(#loc8)
    %9 = tt.load %8, %3, %cst evictionPolicy = evict_last : tensor<1x2048x!tt.ptr<bf16>> loc(#loc9)
    %10 = arith.extf %9 : tensor<1x2048xbf16> to tensor<1x2048xf32> loc(#loc10)
    %11 = arith.mulf %10, %10 : tensor<1x2048xf32> loc(#loc11)
    %12 = arith.addf %11, %cst_4 : tensor<1x2048xf32> loc(#loc12)
    %13 = arith.select %3, %12, %cst_4 : tensor<1x2048xi1>, tensor<1x2048xf32> loc(#loc13)
    %14 = "tt.reduce"(%13) <{axis = 1 : i32}> ({
    ^bb0(%arg5: f32 loc(unknown), %arg6: f32 loc(unknown)):
      %32 = arith.addf %arg5, %arg6 : f32 loc(#loc34)
      tt.reduce.return %32 : f32 loc(#loc32)
    }) : (tensor<1x2048xf32>) -> tensor<1xf32> loc(#loc32)
    %15 = tt.expand_dims %14 {axis = 1 : i32} : tensor<1xf32> -> tensor<1x1xf32> loc(#loc17)
    %16 = tt.load %8, %3, %cst evictionPolicy = evict_first : tensor<1x2048x!tt.ptr<bf16>> loc(#loc18)
    %17 = arith.extf %16 : tensor<1x2048xbf16> to tensor<1x2048xf32> loc(#loc19)
    %18 = tt.splat %arg1 : !tt.ptr<bf16> -> tensor<1x2048x!tt.ptr<bf16>> loc(#loc20)
    %19 = tt.addptr %18, %2 : tensor<1x2048x!tt.ptr<bf16>>, tensor<1x2048xi32> loc(#loc20)
    %20 = tt.load %19, %3, %cst evictionPolicy = evict_last : tensor<1x2048x!tt.ptr<bf16>> loc(#loc21)
    %21 = arith.extf %20 : tensor<1x2048xbf16> to tensor<1x2048xf32> loc(#loc22)
    %22 = arith.divf %15, %cst_2 : tensor<1x1xf32> loc(#loc23)
    %23 = arith.addf %22, %cst_1 : tensor<1x1xf32> loc(#loc24)
    %24 = tt.extern_elementwise %23 {libname = "", libpath = "", pure = true, symbol = "__nv_rsqrtf"} : (tensor<1x1xf32>) -> tensor<1x1xf32> loc(#loc25)
    %25 = tt.broadcast %24 : tensor<1x1xf32> -> tensor<1x2048xf32> loc(#loc26)
    %26 = arith.mulf %17, %25 : tensor<1x2048xf32> loc(#loc26)
    %27 = arith.addf %21, %cst_0 : tensor<1x2048xf32> loc(#loc27)
    %28 = arith.mulf %26, %27 : tensor<1x2048xf32> loc(#loc28)
    %29 = tt.splat %arg2 : !tt.ptr<bf16> -> tensor<1x2048x!tt.ptr<bf16>> loc(#loc29)
    %30 = tt.addptr %29, %6 : tensor<1x2048x!tt.ptr<bf16>>, tensor<1x2048xi32> loc(#loc29)
    %31 = arith.truncf %28 : tensor<1x2048xf32> to tensor<1x2048xbf16> loc(#loc30)
    tt.store %30, %31, %3 : tensor<1x2048x!tt.ptr<bf16>> loc(#loc30)
    tt.return loc(#loc31)
  } loc(#loc)
} loc(#loc)
#loc2 = loc("/data/wyl003/prompt-ordering-research/torchinductor_wyl003/6i/c6i6ko7hzunbg6k4dj2g7dl6xaqh5cmkewbifikl7g2gsqzbjcke.py":21:28)
#loc3 = loc("/data/wyl003/prompt-ordering-research/torchinductor_wyl003/6i/c6i6ko7hzunbg6k4dj2g7dl6xaqh5cmkewbifikl7g2gsqzbjcke.py":24:25)
#loc4 = loc("/data/wyl003/prompt-ordering-research/torchinductor_wyl003/6i/c6i6ko7hzunbg6k4dj2g7dl6xaqh5cmkewbifikl7g2gsqzbjcke.py":24:33)
#loc5 = loc("/data/wyl003/prompt-ordering-research/torchinductor_wyl003/6i/c6i6ko7hzunbg6k4dj2g7dl6xaqh5cmkewbifikl7g2gsqzbjcke.py":29:25)
#loc6 = loc("/data/wyl003/prompt-ordering-research/torchinductor_wyl003/6i/c6i6ko7hzunbg6k4dj2g7dl6xaqh5cmkewbifikl7g2gsqzbjcke.py":31:45)
#loc7 = loc("/data/wyl003/prompt-ordering-research/torchinductor_wyl003/6i/c6i6ko7hzunbg6k4dj2g7dl6xaqh5cmkewbifikl7g2gsqzbjcke.py":31:40)
#loc8 = loc("/data/wyl003/prompt-ordering-research/torchinductor_wyl003/6i/c6i6ko7hzunbg6k4dj2g7dl6xaqh5cmkewbifikl7g2gsqzbjcke.py":31:34)
#loc9 = loc("/data/wyl003/prompt-ordering-research/torchinductor_wyl003/6i/c6i6ko7hzunbg6k4dj2g7dl6xaqh5cmkewbifikl7g2gsqzbjcke.py":31:51)
#loc10 = loc("/data/wyl003/prompt-ordering-research/torchinductor_wyl003/6i/c6i6ko7hzunbg6k4dj2g7dl6xaqh5cmkewbifikl7g2gsqzbjcke.py":31:102)
#loc11 = loc("/data/wyl003/prompt-ordering-research/torchinductor_wyl003/6i/c6i6ko7hzunbg6k4dj2g7dl6xaqh5cmkewbifikl7g2gsqzbjcke.py":33:22)
#loc12 = loc("/data/wyl003/prompt-ordering-research/torchinductor_wyl003/6i/c6i6ko7hzunbg6k4dj2g7dl6xaqh5cmkewbifikl7g2gsqzbjcke.py":35:23)
#loc13 = loc("/data/wyl003/prompt-ordering-research/torchinductor_wyl003/6i/c6i6ko7hzunbg6k4dj2g7dl6xaqh5cmkewbifikl7g2gsqzbjcke.py":36:38)
#loc14 = loc("/data/wyl003/anaconda3/envs/llm2/lib/python3.10/site-packages/triton/language/standard.py":267:36)
#loc15 = loc("/data/wyl003/prompt-ordering-research/torchinductor_wyl003/6i/c6i6ko7hzunbg6k4dj2g7dl6xaqh5cmkewbifikl7g2gsqzbjcke.py":37:25)
#loc16 = loc("/data/wyl003/anaconda3/envs/llm2/lib/python3.10/site-packages/triton/language/standard.py":256:15)
#loc17 = loc("/data/wyl003/prompt-ordering-research/torchinductor_wyl003/6i/c6i6ko7hzunbg6k4dj2g7dl6xaqh5cmkewbifikl7g2gsqzbjcke.py":37:28)
#loc18 = loc("/data/wyl003/prompt-ordering-research/torchinductor_wyl003/6i/c6i6ko7hzunbg6k4dj2g7dl6xaqh5cmkewbifikl7g2gsqzbjcke.py":42:51)
#loc19 = loc("/data/wyl003/prompt-ordering-research/torchinductor_wyl003/6i/c6i6ko7hzunbg6k4dj2g7dl6xaqh5cmkewbifikl7g2gsqzbjcke.py":42:103)
#loc20 = loc("/data/wyl003/prompt-ordering-research/torchinductor_wyl003/6i/c6i6ko7hzunbg6k4dj2g7dl6xaqh5cmkewbifikl7g2gsqzbjcke.py":43:35)
#loc21 = loc("/data/wyl003/prompt-ordering-research/torchinductor_wyl003/6i/c6i6ko7hzunbg6k4dj2g7dl6xaqh5cmkewbifikl7g2gsqzbjcke.py":43:40)
#loc22 = loc("/data/wyl003/prompt-ordering-research/torchinductor_wyl003/6i/c6i6ko7hzunbg6k4dj2g7dl6xaqh5cmkewbifikl7g2gsqzbjcke.py":43:91)
#loc23 = loc("/data/wyl003/prompt-ordering-research/torchinductor_wyl003/6i/c6i6ko7hzunbg6k4dj2g7dl6xaqh5cmkewbifikl7g2gsqzbjcke.py":46:22)
#loc24 = loc("/data/wyl003/prompt-ordering-research/torchinductor_wyl003/6i/c6i6ko7hzunbg6k4dj2g7dl6xaqh5cmkewbifikl7g2gsqzbjcke.py":48:23)
#loc25 = loc("/data/wyl003/prompt-ordering-research/torchinductor_wyl003/6i/c6i6ko7hzunbg6k4dj2g7dl6xaqh5cmkewbifikl7g2gsqzbjcke.py":49:32)
#loc26 = loc("/data/wyl003/prompt-ordering-research/torchinductor_wyl003/6i/c6i6ko7hzunbg6k4dj2g7dl6xaqh5cmkewbifikl7g2gsqzbjcke.py":50:23)
#loc27 = loc("/data/wyl003/prompt-ordering-research/torchinductor_wyl003/6i/c6i6ko7hzunbg6k4dj2g7dl6xaqh5cmkewbifikl7g2gsqzbjcke.py":53:24)
#loc28 = loc("/data/wyl003/prompt-ordering-research/torchinductor_wyl003/6i/c6i6ko7hzunbg6k4dj2g7dl6xaqh5cmkewbifikl7g2gsqzbjcke.py":54:24)
#loc29 = loc("/data/wyl003/prompt-ordering-research/torchinductor_wyl003/6i/c6i6ko7hzunbg6k4dj2g7dl6xaqh5cmkewbifikl7g2gsqzbjcke.py":56:29)
#loc30 = loc("/data/wyl003/prompt-ordering-research/torchinductor_wyl003/6i/c6i6ko7hzunbg6k4dj2g7dl6xaqh5cmkewbifikl7g2gsqzbjcke.py":56:53)
#loc31 = loc("/data/wyl003/prompt-ordering-research/torchinductor_wyl003/6i/c6i6ko7hzunbg6k4dj2g7dl6xaqh5cmkewbifikl7g2gsqzbjcke.py":38:4)
#loc32 = loc(callsite(#loc14 at #loc15))
#loc33 = loc(callsite(#loc16 at #loc14))
#loc34 = loc(callsite(#loc33 at #loc15))
